StartUp/cifar_net.pth (torch_old, 249562 bytes, 10 tensors)

conv1.weight f4 [6, 3, 5, 5]
0	0x3e8607cc	0.26177824
1	0x3d4aac71	0.04948086
2	0x3d8ef25c	0.0697982
3	0x3d94386f	0.07237326
4	0x3e641d11	0.22276713
5	0xbf0a2431	-0.53961474
6	0xbf22d8ba	-0.6361195
7	0xbf593d31	-0.84858996
8	0xbf16bf96	-0.58886087
9	0xbe8792a5	-0.26479068
10	0xbebf2344	-0.37331593
11	0xbf35f5ef	-0.7107839
12	0xbf1e6357	-0.6187033
13	0xbf095fc8	-0.53661776
14	0xbdf1c8f6	-0.118059084
15	0x3ce10366	0.02746744
16	0xbe47a934	-0.1949814
17	0xbd933e4b	-0.07189616
18	0xbe7cd2b6	-0.24689755
19	0x3d2c27d0	0.042030156
20	0xbda1244a	-0.0786825
21	0xbe2219af	-0.1583011
22	0xbc8e6dfb	-0.017386427
23	0xbc074441	-0.008256019
24	0x3e568e44	0.20952708
25	0x3e80315b	0.25037655
26	0x3ecad309	0.39614132
27	0x3ee22988	0.4417231
28	0x3ea76c9f	0.3270006
29	0x3dae279c	0.08503649
30	0xbda3ec6b	-0.080040775
31	0xbc75e350	-0.015007809
32	0xbde4593b	-0.11149832
33	0x3d31a537	0.04337045
34	0x3d0da41c	0.034580335
35	0xbd8b72d3	-0.0680901
36	0xbe25114a	-0.16119877
37	0x3ccfd45c	0.025369816
38	0x3d8392fe	0.06424521
39	0x3d5ed31c	0.05440055
40	0x3e38b326	0.1803709
41	0x3e77b051	0.24188353
42	0x3d44bece	0.048033528
43	0x3dd219fe	0.10258864
44	0xbd921f25	-0.071348466
45	0xbdd9d4b7	-0.10636275
46	0xbdbc4afe	-0.09193991
47	0xbd5f05d0	-0.054448903
48	0xb9a41ba2	-0.00031301106
49	0xbe93639d	-0.28786936
50	0x3ecdbce4	0.40183175
51	0x3f09efd4	0.53881574
52	0x3f010a2e	0.5040616
53	0x3e30bd44	0.17259699
54	0xbdb1b0f1	-0.08676327
55	0x3e37c5d9	0.17946567
56	0x3e14c080	0.14526558
57	0x3deb3298	0.11484259
58	0x3e30c121	0.17261173
59	0xbdc31e3c	-0.09527251
60	0x3e920720	0.2852106
61	0x3e9b2b6d	0.3030657
62	0x3eafa4e4	0.3430549
63	0x3e97e10c	0.29663885
64	0xbd1a908d	-0.03773551
65	0x3ebeda68	0.37276006
66	0x3e9efe71	0.31053498
67	0x3efec464	0.4975921
68	0x3e0d3d3a	0.13792887
69	0x3e501d23	0.20323615
70	0xbd5628f9	-0.05228517
71	0x3e4272a0	0.18989038
72	0x3e07dc3f	0.13267611
73	0xbc8eb7bc	-0.017421596
74	0xbe58a4b9	-0.21156587
75	0xbe79d537	-0.24397741
76	0xbe9a7880	-0.3017006
77	0x3dcc7b6a	0.09984477
78	0x3f34ed78	0.7067485
79	0x3e7ae61f	0.24501847
80	0xbf0d01a0	-0.55080605
81	0x3ec70dfc	0.38877857
82	0x3ef27dfe	0.4736175
83	0xbe90f372	-0.28310734
84	0xbda6c542	-0.08143093
85	0x3d1c3238	0.03813383
86	0x3f2caefb	0.674545
87	0xbe678f09	-0.22613157
88	0xbf97ec5d	-1.1869007
89	0x3f0167ff	0.5054931
90	0x3eab10ab	0.33411154
91	0x3e1a0f32	0.15044859
92	0xbf2870ee	-0.6579732
93	0xbf1ae5dc	-0.6050699
94	0x3f15efd5	0.5856908
95	0xbd3cf465	-0.04613151
96	0xbe07a57b	-0.1324672
97	0xbe92bd9c	-0.28660285
98	0xbe2023bb	-0.1563863
99	0xbd5555a4	-0.052083626
100	0x3e675cab	0.22593944
101	0xbc83aecb	-0.016074559
102	0xbe768e1a	-0.24077645
103	0xbdc9c818	-0.09852618
104	0xbec639a8	-0.38715863
105	0x3d90fc27	0.07079344
106	0x3f29bf71	0.6630774
107	0x3eb00580	0.34379196
108	0xbf256063	-0.646002
109	0xbe1e99d7	-0.15488373
110	0x3e8ce5e2	0.27519137
111	0x3f6dedb2	0.9294082
112	0xbeb5cc61	-0.3550749
113	0xbf96bfc9	-1.1777278
114	0x3ed48fc0	0.41515923
115	0x3ed6e1c4	0.4196912
116	0x3e299e09	0.16564192
117	0xbf345828	-0.70447016
118	0xbefd0604	-0.49418652
119	0x3f517963	0.81825846
120	0xbcafaa0c	-0.02144339
121	0x3d786f34	0.060652927
122	0xbe50e356	-0.20399222
123	0x3c1ec552	0.0096905995
124	0x3eaee212	0.34156853
125	0xbe2a3985	-0.16623504
126	0x3ddb906a	0.10720904
127	0xbd25d3e7	-0.04048529
128	0x3e566868	0.20938265
129	0xbe9a216c	-0.30103624
130	0xbe9a2c59	-0.3011196
131	0x3f0f6782	0.56017315
132	0x3efc67d1	0.49297956
133	0xbea93830	-0.3305068
134	0xbe0666d4	-0.13125163
135	0x3cbe4b45	0.02322925
136	0x3f42a0e0	0.76026726
137	0xbe5279fd	-0.20554347
138	0xbf8f221e	-1.1182287
139	0x3ee72a4d	0.4514946
140	0x3e99f575	0.3007008
141	0x3e7101de	0.23535869
142	0xbf0be041	-0.5463906
143	0xbf062d1f	-0.524126
144	0x3f10b7f4	0.5653069
145	0x3d88910f	0.06668293
146	0x3e130c6f	0.14360212
147	0x3d534c7d	0.051586617
148	0xbd9e0ab1	-0.07716883
149	0x3e094e64	0.1340881
150	0x3d48c00e	0.049011283
151	0xbd51a058	-0.051178306
152	0xbe1f2390	-0.1554091
153	0xbcc1bdd6	-0.023650091
154	0xbe511343	-0.20417504
155	0xbd4712f3	-0.048602056
156	0xbdb95a51	-0.090504296
157	0x3de6bf58	0.11266965
158	0x3ebd99ef	0.37031505
159	0xbc8fdf99	-0.017562674
160	0xbde330c3	-0.11093285
161	0xbe60f385	-0.21967895
162	0x3e17f717	0.14840351
163	0x3ed6b156	0.41932172
164	0x3cbeb7b6	0.02328096
165	0x3dacc981	0.08436871
166	0xbd10ad9a	-0.03532181
167	0x3e41bea9	0.18920387
168	0x3e2b9a31	0.16758038
169	0x3dd243fc	0.10266873
170	0x3b767619	0.0037607013
171	0x3e063212	0.13105038
172	0x3dcec457	0.100960426
173	0x3e945694	0.28972304
174	0x3e73d47d	0.23811527
175	0x3d74f6ed	0.0598058
176	0x3d13277e	0.035926335
177	0xbe05e598	-0.13075864
178	0x3bfd83c6	0.007736656
179	0xbe0fa818	-0.14028966
180	0xbe2c5f90	-0.16833329
181	0xbe6c48d0	-0.23074651
182	0xbde78d54	-0.11306253
183	0x3e20cdab	0.15703456
184	0xbdb91626	-0.090374276
185	0xbea9b10e	-0.33142895
186	0xbee6c784	-0.45074093
187	0x3dc189a9	0.09450085
188	0x3ea91026	0.33020133
189	0x3d464473	0.048405122
190	0xbedad79a	-0.42742616
191	0xbf00ea1f	-0.5035724
192	0xbd7c5cbc	-0.061611876
193	0x3e811ef0	0.25218916
194	0x3d264f2d	0.04060285
195	0xbe17a0d2	-0.14807442
196	0xbe93c292	-0.28859383
197	0xbd11a613	-0.03555877
198	0x3e634d4a	0.22197452
199	0x3d963549	0.07334382
200	0xbb98717b	-0.0046522
201	0x3e20dd38	0.15709388
202	0x3e95115b	0.29114804
203	0x3e203e30	0.15648723
204	0x3d555f39	0.052092765
205	0xbe8d40b8	-0.2758844
206	0xbccda648	-0.025103703
207	0x3e90b206	0.2826082
208	0x3f0dcf9b	0.55394906
209	0x3cb3e9d0	0.021962076
210	0xbe8e5181	-0.27796558
211	0xbe8ee8f6	-0.2791211
212	0x3e47e03c	0.19519132
213	0x3f1a2c24	0.60223603
214	0x3e519368	0.20466387
215	0xbe3b2bb1	-0.18278386
216	0xbe203f46	-0.15649137
217	0x3eb5a4b7	0.3547723
218	0x3efab480	0.48965836
219	0x3e3b676d	0.18301173
220	0x3c1454a6	0.009053385
221	0xbdb9e5ec	-0.09077057
222	0x3e2a6df4	0.16643506
223	0x3e5f2191	0.21790148
224	0x3cca853b	0.024721732
225	0xbe88a652	-0.26689392
226	0x3e1fa4a7	0.15590154
227	0x3d40d250	0.04707557
228	0xbe2dda21	-0.16977741
229	0xbe05cb00	-0.1306572
230	0xbdc8d020	-0.09805322
231	0xbf0a3ac0	-0.53995895
232	0x3ed861a6	0.42262
233	0x3e98ab77	0.29818317
234	0xbd859e73	-0.065243624
235	0x3f22a019	0.6352554
236	0xbf859251	-1.0435277
237	0xbf3b04d2	-0.7305423
238	0xbebc0c98	-0.36728358
239	0x3f642928	0.891253
240	0x3f1a42f4	0.6025841
241	0x3f319d26	0.69380414
242	0xbf0264c1	-0.5093499
243	0xbfb0c8fa	-1.3811333
244	0xbed695ed	-0.4191126
245	0xbea0f2c8	-0.31435227
246	0x3ee19344	0.44057667
247	0x3f4133e4	0.75469804
248	0x3dd14bde	0.10219549
249	0xbe9a2326	-0.3010494
250	0xbe829708	-0.25505853
251	0x3e4f77e5	0.2026058
252	0x3d100a02	0.035165794
253	0xbca84ec8	-0.020545378
254	0x3ddd6a88	0.10811335
255	0xbd3e329f	-0.046434995

conv1.bias f4 [6]
0	0x3e80f600	0.25187683
1	0xbe6377ae	-0.22213623
2	0xbd032f44	-0.032027498
3	0xbea454e3	-0.32096013
4	0xbeaa1060	-0.33215618
5	0xbf457216	-0.77127206

conv2.weight f4 [16, 6, 5, 5]
0	0xbdbb9649	-0.09159524
1	0xbdcefb92	-0.10106577
2	0xbd0a8e68	-0.033827215
3	0xbdbf83fb	-0.09351345
4	0xbe270266	-0.16309509
5	0xbcd5ed2b	-0.026114067
6	0xbd0e55c1	-0.03474975
7	0xbcb8464b	-0.022494456
8	0xbe19e053	-0.15026979
9	0xbe2f5ef8	-0.17126071
10	0x3d151974	0.036401227
11	0x3b278ab1	0.0025564844
12	0xbda03918	-0.0782339
13	0x3badbff5	0.005302424
14	0xbd1832da	-0.03715787
15	0xbc9ad290	-0.018899232
16	0xbd2b5e3b	-0.041837912
17	0x3d18bf26	0.03729167
18	0xbd041174	-0.032243207
19	0xbdac88a8	-0.084245026
20	0xbd01087a	-0.031502225
21	0xbc8dffdd	-0.01733392
22	0x3d4e4e30	0.050367534
23	0x3c67ef02	0.014156105
24	0xbd3044b1	-0.04303426
25	0xbd57ed5c	-0.052716598
26	0xbd13ca59	-0.036081646
27	0xbe019988	-0.12656224
28	0xbdaf259a	-0.08552094
29	0xbdc4bd9d	-0.09606478
30	0xbe0b7a9f	-0.13620995
31	0xbd866fba	-0.06564279
32	0xbd1ff3b0	-0.039050758
33	0xbdd34d65	-0.10317496
34	0xbd641ebe	-0.05569338
35	0x3d69f1f3	0.057115506
36	0xbd92a1d5	-0.07159773
37	0xbaf40590	-0.001861738
38	0xbdb01a97	-0.085988216
39	0xbd8732d3	-0.06601491
40	0x3de304a8	0.110848725
41	0xbd9e73e3	-0.077369474
42	0xbdb23953	-0.0870234
43	0xbcd02a9f	-0.025410948
44	0xbd307110	-0.043076575
45	0x3c4b7eee	0.012420399
46	0x3d549988	0.05190423
47	0xbd4fae9a	-0.050703622
48	0x3d308c72	0.04310269
49	0x3dbba479	0.0916223
50	0xbd7834b3	-0.060597133
51	0xbc6eef6a	-0.014583448
52	0xbc4e7a7f	-0.0126024475
53	0xbdba9942	-0.09111263
54	0x3ccef6eb	0.025264224
55	0x3da9289f	0.08259701
56	0xbdfd94a7	-0.12381869
57	0xbd3223e5	-0.043491263
58	0xbcbd2c82	-0.023092512
59	0xbda26020	-0.07928491
60	0xbd3ef1ff	-0.046617504
61	0x3df8a2da	0.121404365
62	0x3db4e670	0.08833015
63	0x3d16bea9	0.03680292
64	0xbda829e0	-0.08211112
65	0xbd4b27c7	-0.04959848
66	0x3e2eb252	0.17060211
67	0x3da56a11	0.08076871
68	0xbcb6a51d	-0.022295529
69	0x3dc7ad95	0.09749905
70	0xbd22ddc5	-0.039762277
71	0xbd6c4b74	-0.057689145
72	0x3d46ca8e	0.048533015
73	0xbdc36cbe	-0.09542225
74	0xbcb7d28f	-0.02243927
75	0xbc9a71c5	-0.018853078
76	0xbd797e46	-0.06091144
77	0xbd659489	-0.056049857
78	0xbe11d988	-0.14243138
79	0xbcbadc25	-0.022810051
80	0xbdbfe02f	-0.093689315
81	0x3d3a267e	0.045446865
82	0x3d1103e6	0.03540411
83	0xbdaa45d3	-0.08314099
84	0xbc07bd2d	-0.008284849
85	0x3e3bf252	0.18354157
86	0xbde99663	-0.11405637
87	0x3d5942e7	0.05304232
88	0xbd5fcc0e	-0.05463796
89	0x3d82460f	0.06361019
90	0x3df5ebe2	0.12007882
91	0x3d809f54	0.062803894
92	0x3d71f935	0.059075553
93	0x3cc3443c	0.023836248
94	0x3c6da03d	0.014503536
95	0xbde07fb7	-0.1096186
96	0xbc97151e	-0.018442687
97	0xbd810d9c	-0.06301424
98	0x3e2f2a95	0.17106088
99	0x3e111322	0.14167455
100	0xbde13282	-0.10995962
101	0xbd4a3c2b	-0.049373787
102	0xbd82baec	-0.06383309
103	0xbe087742	-0.13326743
104	0xbdb59c8e	-0.08867751
105	0xbd233803	-0.03984834
106	0xbc2706cd	-0.0101944925
107	0xbd741cf8	-0.05959794
108	0xbd527eed	-0.051390577
109	0x3c4d3d30	0.012526795
110	0xbdbc1a2b	-0.09184679
111	0x3db6e827	0.08930998
112	0x3df5061b	0.11964055
113	0xbc93f441	-0.018060805
114	0xbc15f97b	-0.009153719
115	0x3e38b4fd	0.18037792
116	0x3e56747c	0.20942873
117	0x3db4ec49	0.0883413
118	0xbddf164e	-0.10892926
119	0x3d04bac2	0.03240467
120	0x3e3f412f	0.1867721
121	0xbb8eac27	-0.0043540183
122	0xbdc78bf8	-0.09743494
123	0xbd956529	-0.072946854
124	0xbdf48416	-0.11939256
125	0xbd476e7c	-0.04868935
126	0x3d8d4775	0.06898395
127	0xbd0fb752	-0.035086937
128	0x3bde2907	0.006779793
129	0xbd271863	-0.04079474
130	0xba2e5243	-0.0006649831
131	0xbcba36d1	-0.022731217
132	0x3d3775f4	0.044790223
133	0xbd952d96	-0.072840855
134	0x3ba7f5b4	0.0051257256
135	0x3d4050c4	0.046952024
136	0x3c7c25f8	0.015389912
137	0xbb4f343b	-0.0031616825
138	0x3d8e6f56	0.069548294
139	0xbd24f507	-0.04027274
140	0x3e35e4d2	0.1776307
141	0xbd30cd5b	-0.043164592
142	0xbd25e33e	-0.04049992
143	0xbd4cdfa2	-0.05001796
144	0xba91b237	-0.0011115734
145	0x3ce081a3	0.027405566
146	0xbcf62c02	-0.030050281
147	0xbdbdc89a	-0.09266777
148	0xbd0c931b	-0.03431998
149	0x3d38f80f	0.045158442
150	0xbedce984	-0.43146908
151	0xbe6312c1	-0.22175123
152	0xbe107b4c	-0.14109534
153	0xbda982e3	-0.08276918
154	0x3bc89baa	0.006122072
155	0xbeb00bd9	-0.3438404
156	0xbea6946a	-0.32535106
157	0xbe100fea	-0.1406857
158	0x3e64bfdf	0.22338818
159	0x3e7daf95	0.2477401
160	0xbeae0bd9	-0.33993414
161	0xbe709e40	-0.23497868
162	0xbe378331	-0.1792114
163	0xbde06a87	-0.109578185
164	0xbdb4e423	-0.08832576
165	0xbe4b1fc1	-0.19836332
166	0xbe5452a8	-0.20734656
167	0xbec96fb6	-0.3934304
168	0xbea18a3f	-0.31550786
169	0xbca8f74b	-0.020625731
170	0xbe6b0236	-0.22950062
171	0xbe6a32af	-0.22870897
172	0xbe450178	-0.19238842
173	0xbe0f4769	-0.13992085
174	0xbe18f354	-0.14936572
175	0xbdd0fd9e	-0.10204624
176	0xbe93fcbb	-0.28903756
177	0xbebefa6b	-0.3730043
178	0x3df60188	0.12012011
179	0x3ef8addd	0.48570147
180	0xbe8019b2	-0.25019604
181	0xbe279bff	-0.16368102
182	0x3e8d9efc	0.27660358
183	0x3df2f8d5	0.11863867
184	0xbeae5ed7	-0.34056732
185	0x3dc52ecc	0.096280664
186	0x3e9646e0	0.29350948
187	0xbc95127d	-0.018197292
188	0xbddf11db	-0.108920775
189	0x3d4402f5	0.047854383
190	0x3e2eade0	0.17058516
191	0x3d231e1e	0.039823644
192	0xbe5aa204	-0.21350867
193	0xbda535cb	-0.08066901
194	0x3db394d8	0.08768624
195	0x3e60c8db	0.2195162
196	0x3e09e5dd	0.13466592
197	0x3d5a518e	0.053300433
198	0x3ea4b146	0.321665
199	0x3e8564f2	0.26053578
200	0xbe41641a	-0.18885842
201	0x3d0c74dc	0.034291133
202	0xbdb378a3	-0.08763244
203	0x3e390bc0	0.18070889
204	0xbd220965	-0.03955974
205	0xbe3f6ac5	-0.18693073
206	0xbec4df75	-0.38451734
207	0xbef0fefa	-0.47069532
208	0xbd8e6c03	-0.06954195
209	0x3e727320	0.23676729
210	0xbd8d84d5	-0.06910101
211	0xbe91720d	-0.28407326
212	0xbefba3f2	-0.49148518
213	0xbde559cf	-0.1119877
214	0x3e02b005	0.12762459
215	0x3d656f06	0.056014083
216	0xbe3ff943	-0.1874743
217	0xbeab027b	-0.3340033
218	0xbdccc9c1	-0.09999419
219	0xbda0c120	-0.07849336
220	0x3dea82b4	0.11450711
221	0x3d9f4741	0.077772625
222	0xbd39de82	-0.045378216
223	0xbe137b8b	-0.14402597
224	0xbc57d2f1	-0.013172851
225	0x3d9c9459	0.076454826
226	0x3eb242f8	0.34816718
227	0x3eb4e5f8	0.35331702
228	0xbdc6b8e2	-0.09703232
229	0xbea33110	-0.3187337
230	0xbdcf034d	-0.101080514
231	0x3d418e56	0.047254883
232	0xbc11aca2	-0.0088912565
233	0xbea60339	-0.32424334
234	0xbd1a3733	-0.0376503
235	0xbe38c08f	-0.18042205
236	0xbecc9dff	-0.3996429
237	0xbec1466e	-0.37749046
238	0xbe802cf9	-0.2503431
239	0x3e1dbd7e	0.15404317
240	0xbcad6c52	-0.021169815
241	0xbe645d08	-0.22301114
242	0xbe375c8a	-0.17906395
243	0xbdffe67d	-0.12495134
244	0x3e2f60ac	0.17126721
245	0xbe74c5fa	-0.23903647
246	0xbd96777f	-0.07347011
247	0x3e712354	0.23548633
248	0xbd4460c7	-0.047943857
249	0xbe63b553	-0.22237138
250	0xbd05eb9b	-0.032695394
251	0x3df7c068	0.120972455
252	0x3e14c5cc	0.14528579
253	0xbe83b54a	-0.2572425
254	0xbe94816b	-0.29004988
255	0xbd62d952	-0.055383034

conv2.bias f4 [16]
0	0x3d2c54e1	0.042073134
1	0x3f76fada	0.9647652
2	0xbdc1b7ef	-0.09458911
3	0xbe4d6026	-0.20056209
4	0x3f780ed3	0.9689762
5	0xbf16de6d	-0.58933145
6	0x3edfe7ce	0.4373154
7	0x3edf020b	0.43556246
8	0xbf1d5a30	-0.6146574
9	0x3fc5cc8a	1.5453045
10	0xbfad9c04	-1.3563237
11	0x3e2e212f	0.17004846
12	0xbdd637ed	-0.10459886
13	0xbe9ee0d5	-0.31030908
14	0xbfe38f7f	-1.7778167
15	0x3f92085f	1.1408805

fc1.weight f4 [120, 400]
0	0xbd519fd3	-0.05117781
1	0xbd0ec0e5	-0.034851927
2	0x3d345b66	0.044032477
3	0xbc93c6ac	-0.01803907
4	0xbd1cba10	-0.03826338
5	0xbc533265	-0.012890433
6	0x3c999a87	0.018750442
7	0x3d14b5de	0.036306255
8	0xbc9423a0	-0.018083394
9	0xbc5c6af9	-0.013453239
10	0xbb420a5a	-0.002960822
11	0x3d35f551	0.044423405
12	0xba18ad8f	-0.0005824202
13	0x3d2ff8ed	0.042962003
14	0x3d15d4a2	0.036579736
15	0xbb010531	-0.0019686932
16	0xbc84929e	-0.016183194
17	0x3d37ffe7	0.044921782
18	0x3d2c353f	0.042042967
19	0x3d3cac91	0.04606301
20	0x3b397047	0.0028295682
21	0xbc23c60e	-0.00999595
22	0x3c54ccaf	0.0129882535
23	0xbba6232c	-0.005070111
24	0x3c380d92	0.011233704
25	0xbc332803	-0.0109348325
26	0x3a318fc5	0.00067734375
27	0x3d1f2009	0.03884891
28	0xbd4e3986	-0.050347827
29	0xbc5f7adb	-0.013640131
30	0x3d3579b8	0.044305533
31	0xbd6ea5e6	-0.05826368
32	0x3d1f8d7f	0.0389533
33	0xbd8172cf	-0.06320726
34	0x3c6ea317	0.014565251
35	0x3d010024	0.031494275
36	0xb8be0bec	-9.0621266e-05
37	0x3b9c50c2	0.0047703693
38	0xbd43e77b	-0.04782818
39	0x3da49395	0.080359615
40	0xbd00643e	-0.0313456
41	0xbc5620c4	-0.013069335
42	0xbd3ecbb0	-0.04658097
43	0xbb93eae7	-0.0045140865
44	0xbc77440e	-0.015091909
45	0x3c3e83c6	0.011628097
46	0xbcdc37a8	-0.026882008
47	0x3db9f4b5	0.09079877
48	0x3d6561d4	0.0560015
49	0xbd404b15	-0.046946604
50	0x3daa0fbc	0.08303782
51	0x3d935a1a	0.0719492
52	0xbbc8b0dd	-0.0061245994
53	0xbbf238c9	-0.007392023
54	0x3d8f6eed	0.07003579
55	0x3da966da	0.082715705
56	0x3dc0067f	0.09376239
57	0xbd046f48	-0.03233269
58	0x3b82555f	0.003977462
59	0x3d80835a	0.06275053
60	0x3d2b9142	0.041886576
61	0xbc0a080b	-0.008424769
62	0x3acba94e	0.0015538128
63	0x3d4fc6ff	0.050726887
64	0x3c97485c	0.01846712
65	0x3d2dd13b	0.042435866
66	0x3cb8fd29	0.022581654
67	0xbbf59999	-0.007495117
68	0xbc83c69a	-0.016085912
69	0xbd98ec10	-0.074669
70	0x3b337201	0.0027381184
71	0xbd076a35	-0.03306027
72	0xbcc5c1c9	-0.024140256
73	0x3cd55642	0.026042107
74	0x3c53f9e1	0.012937994
75	0xbaddbb65	-0.001691681
76	0xbd32f32f	-0.04368895
77	0x3d599165	0.053117175
78	0x3d90d6b2	0.070722
79	0xbd98725d	-0.07443688
80	0xbc66fb37	-0.01409798
81	0xbd5ce7eb	-0.05393211
82	0xbc17d5a5	-0.009267245
83	0xbd397a9b	-0.04528294
84	0xbd054561	-0.032536868
85	0x3d08043e	0.03320717
86	0xbd57268c	-0.052526996
87	0x3badeb74	0.005307609
88	0xbbb1c542	-0.0054251263
89	0x3d59efd8	0.05320725
90	0x3cca9d64	0.024733253
91	0xbd89b6a9	-0.06724293
92	0xbd236d9b	-0.03989945
93	0xbbdac357	-0.0066761184
94	0x3cd074e3	0.02544636
95	0x3bd91796	0.006625126
96	0x3ce8edf3	0.028433776
97	0x3d3084d0	0.04309541
98	0xbd32c8bd	-0.04364847
99	0x3c19dc82	0.009390952
100	0xbd2f427c	-0.042788014
101	0xbcd38647	-0.025820864
102	0x3d97e680	0.07417011
103	0x3d267129	0.04063526
104	0x3c7a94be	0.015294252
105	0x3c85efa3	0.01634962
106	0x3d1de7fa	0.03855131
107	0x3d52793a	0.051385142
108	0x3d69ceab	0.05708186
109	0xbca558eb	-0.020184001
110	0xbb5573d7	-0.0032570267
111	0xbc920897	-0.017826362
112	0x39736f05	0.00023215644
113	0x3cc2ead1	0.02379361
114	0xbb965b68	-0.004588533
115	0x3c932a6e	0.017964568
116	0x3bfd6e2f	0.007734082
117	0xbcae4b10	-0.021276027
118	0xbd6215e6	-0.055196665
119	0x3cbf139f	0.023324786
120	0x3ccb7300	0.02483511
121	0xbd615019	-0.055008028
122	0xbd45e8f4	-0.048317865
123	0x3a95ab79	0.0011418901
124	0xbd3687d3	-0.044563126
125	0xbd90f7b2	-0.07078494
126	0xbd25bd30	-0.040463626
127	0xbc66271b	-0.014047409
128	0x3d0290a9	0.03187624
129	0xbc8704a3	-0.016481703
130	0xbd9d34e9	-0.076761074
131	0x3d54e63a	0.051977374
132	0x3d3b4821	0.045723084
133	0x3bd11760	0.0063809603
134	0x3c31348e	0.010815753
135	0xbbc3d1a0	-0.005975917
136	0xbd61194a	-0.05495576
137	0xbcc040fb	-0.023468485
138	0xbc8789c7	-0.01654519
139	0xbca8a933	-0.020588493
140	0xbdad594f	-0.084643
141	0xbd1253c1	-0.035724405
142	0x3ca780d7	0.020447178
143	0x3d72d030	0.059280574
144	0x3b99367d	0.004675685
145	0xbd90b00b	-0.070648275
146	0x3d3a3095	0.045456488
147	0xbd2bffa4	-0.041991845
148	0x3c611ae4	0.013739321
149	0xbd750083	-0.05981494
150	0x3c4f1e6b	0.01264153
151	0x3cb97bc3	0.022642022
152	0xbd665032	-0.056228824
153	0xbbab5040	-0.0052280724
154	0x39800405	0.00024417057
155	0x3cd38003	0.025817877
156	0xbd8c596b	-0.068529926
157	0xbd838450	-0.06421721
158	0x3d93e94d	0.07222233
159	0x3df62ec3	0.12020638
160	0xbc5b4104	-0.0133822
161	0xbd9cea36	-0.0766186
162	0xbc9a4901	-0.01883364
163	0x3d1351e0	0.035966754
164	0x3d59c98b	0.053170722
165	0x3b42675e	0.0029663662
166	0xbb360cd9	-0.0027778654
167	0xbd45cf43	-0.048293363
168	0xbb6e160f	-0.0036329066
169	0xbd77e205	-0.060518283
170	0x3c860086	0.016357671
171	0xbc96c436	-0.018404108
172	0x3c3734a1	0.011181981
173	0xbd47047e	-0.04858827
174	0xbd987e5f	-0.074459784
175	0x3d2ad5f6	0.041707955
176	0x3db31a6f	0.08745276
177	0x3d56629d	0.05234014
178	0x3d3542e5	0.04425325
179	0xbcc624fc	-0.024187557
180	0xbcdd69c4	-0.027027972
181	0xbc856cda	-0.016287256
182	0x3d01e4ae	0.031712227
183	0xba01d9ad	-0.00049533957
184	0xbcb6486e	-0.022251334
185	0xbc48e313	-0.01226117
186	0x3cd28476	0.025697928
187	0xbcad4d01	-0.021154882
188	0xbd1c55fc	-0.03816794
189	0x3d04374f	0.03227931
190	0x3bb9a83a	0.005665806
191	0xbc88206e	-0.016617026
192	0xbcf9dbcc	-0.030500315
193	0xbd37402f	-0.044738945
194	0x3d31f6ba	0.043448187
195	0xbce77f64	-0.028258987
196	0xbd4a7aa3	-0.04943336
197	0xbd3dc4e4	-0.046330348
198	0x3d9940e9	0.07483084
199	0x3d4e8728	0.050421864
200	0xbd1a7ed8	-0.037718624
201	0x3d8d5d6c	0.069025844
202	0xbcbcc559	-0.023043321
203	0x3d33edcb	0.04392795
204	0xbcead4e8	-0.028665975
205	0x3d22969d	0.039694417
206	0x3b4cf0dd	0.0031271495
207	0xbd788193	-0.060670447
208	0xbd3d5626	-0.046224736
209	0xbd84e042	-0.06488086
210	0x3d93d475	0.07218257
211	0x3ca37b0a	0.01995613
212	0xbd1ad2cb	-0.037798684
213	0xbdaaa561	-0.08332325
214	0xb89a09d6	-7.345124e-05
215	0xbd2f8120	-0.042847753
216	0xbd9d3dc3	-0.07677796
217	0xbd833eb4	-0.06408444
218	0x3ca35ccd	0.019941712
219	0xb9849e33	-0.0002529487
220	0xbd7bb0a7	-0.061447766
221	0xbd85848b	-0.06519421
222	0xbd92a329	-0.071600266
223	0x3c13bfb5	0.0090178745
224	0xbd790d3a	-0.06080363
225	0xbd749ab2	-0.05971784
226	0x3c11b5b3	0.008893418
227	0xbd412c1a	-0.0471612
228	0x3d705f35	0.058684547
229	0x3d8327ec	0.06404099
230	0xbdbe0b32	-0.09279479
231	0xbc9965f7	-0.018725378
232	0xbd6cd2a2	-0.057818063
233	0xbcabd31c	-0.020974688
234	0x3c02bbeb	0.007979373
235	0xbda3a6e2	-0.07990815
236	0xbd8b68b3	-0.06807079
237	0xbd5770b9	-0.052597735
238	0xbd34d5c6	-0.044149183
239	0xbc7d4595	-0.015458484
240	0xbb8df2da	-0.0043319287
241	0xbd1dfeed	-0.038573194
242	0x3b828b08	0.003983859
243	0x3d2cff2b	0.042235535
244	0x3d2dda56	0.04244455
245	0xbcce50e5	-0.025185058
246	0x3cc64762	0.02420396
247	0xbccffbc9	-0.025388615
248	0x3c788af3	0.015169847
249	0x3d7a4c21	0.06110776
250	0xbce19d8a	-0.02754094
251	0xba4bdb02	-0.000777647
252	0xbcb72d42	-0.022360448
253	0x3bb58199	0.005539131
254	0xbccfb036	-0.025352579
255	0xbbed8ecb	-0.0072496883

fc1.bias f4 [120]
0	0xbcad2459	-0.021135496
1	0x3e3f489d	0.18680044
2	0xbe65a9ba	-0.22428027
3	0xbdcbd3c5	-0.09952501
4	0xbd7f7d07	-0.062375095
5	0x3e7e49d1	0.24832846
6	0xbd6b60ac	-0.05746524
7	0x3eaf4c8d	0.3423809
8	0x3e55ee46	0.20891675
9	0x3ed819a6	0.42207068
10	0xbd0f1e60	-0.034941077
11	0xbdc16ca5	-0.094445504
12	0x3ea5a26d	0.32350484
13	0x3e12bc97	0.14329754
14	0x3e53b1cc	0.20673293
15	0x3cc0204c	0.0234529
16	0x3d027865	0.0318531
17	0x3e01f51d	0.1269116
18	0xbddaa5f6	-0.10676186
19	0xbc3f366a	-0.011670688
20	0xbd364308	-0.04449752
21	0x3d2093e2	0.039203532
22	0x3e292b3a	0.16520396
23	0xbe575d3a	-0.21031657
24	0xbdb2379e	-0.087020144
25	0x3e3d72d7	0.18500839
26	0xbdd2c081	-0.102906235
27	0xbc00832f	-0.007843777
28	0xbea8e027	-0.32983515
29	0x3ebf7a86	0.37398165
30	0xbe413e9f	-0.18871544
31	0x3d4000d5	0.046875793
32	0x3dc7dfc5	0.097594775
33	0xbe84de69	-0.25950935
34	0x3cbd5dfd	0.023116106
35	0x3e6dde90	0.23229432
36	0x3d0d72b3	0.034533214
37	0x3cf286b6	0.02960525
38	0x3d876bfc	0.06612393
39	0x3e32c7f7	0.17459093
40	0xbe27a2b9	-0.16370668
41	0xbb50be71	-0.0031851793
42	0x3d6457ee	0.05574792
43	0xbeaa2415	-0.33230653
44	0xbcbc9b4c	-0.02302327
45	0x3e30e318	0.1727413
46	0x3de8e85f	0.11372446
47	0x3bf07907	0.0073386463
48	0x3dfa5268	0.12222749
49	0x3d21afca	0.039474286
50	0x3e3ecc53	0.18632631
51	0xbe7ef750	-0.2489903
52	0xbe114b54	-0.14188892
53	0x3e512278	0.20423305
54	0xbdc518f8	-0.09623903
55	0x3da5a516	0.08088128
56	0x3e98e14c	0.29859388
57	0x3d74ba67	0.05974808
58	0xbd6ee047	-0.058319356
59	0xbeabacd5	-0.33530298
60	0xbe1a50ad	-0.15069838
61	0xbb328d21	-0.0027244764
62	0x3dab7a58	0.083729446
63	0xbd9f34c7	-0.07773738
64	0xbc409678	-0.011754625
65	0xbd92b769	-0.07163889
66	0xbc730e57	-0.014834962
67	0x3d3b886b	0.045784395
68	0xbaf80836	-0.0018923345
69	0x3d832387	0.06403261
70	0xbbf8cfe7	-0.0075931433
71	0x3e23220f	0.15930961
72	0xbc6623ca	-0.014046619
73	0x3cc50800	0.024051666
74	0x3c96d478	0.01841186
75	0xbdf86e99	-0.1213047
76	0x3df15941	0.11784602
77	0x3e417c12	0.18894985
78	0xbc886f47	-0.016654624
79	0x3e18c8af	0.14920305
80	0xbe277b5c	-0.16355652
81	0x3d7b57e5	0.06136312
82	0x3c0b9bec	0.008521061
83	0x3e8105ad	0.25199643
84	0x3ddeebfa	0.10884853
85	0xbe6ff864	-0.23434597
86	0x3e427476	0.18989739
87	0x3e7ee570	0.24892211
88	0xbd344f87	-0.044021156
89	0xbdb66f0d	-0.089079
90	0x3d85b53e	0.0652871
91	0x3eb7ec48	0.35922456
92	0x3e520c8b	0.20512597
93	0x3ec64215	0.38722292
94	0xbd60affa	-0.054855324
95	0x3e321292	0.17389897
96	0xbd7e9e04	-0.062162414
97	0x3da42431	0.080147155
98	0xbe1ef4ba	-0.15523043
99	0x3de7824e	0.113041505
100	0xbd65b666	-0.05608215
101	0x3dc37f9a	0.095458224
102	0x3e1470ac	0.14496106
103	0x3d735a48	0.05941227
104	0xbe387268	-0.18012393
105	0x3eddbaf3	0.43306693
106	0x3bcb3a2e	0.006202004
107	0x3d8828e8	0.06648427
108	0x3e3450f8	0.17609012
109	0x3e1adf2e	0.15124199
110	0x3eb9b5b7	0.3627145
111	0xbcdbeb83	-0.0268457
112	0x3d4da1ff	0.05020332
113	0xbe891313	-0.26772365
114	0x3d2d42ae	0.04229992
115	0xbd855079	-0.065094896
116	0x3c9bb52a	0.019007284
117	0xbe0416a8	-0.12899268
118	0x3ea9c918	0.33161235
119	0xbd69340c	-0.0569344

fc2.weight f4 [84, 120]
0	0x3d0165eb	0.031591337
1	0xbc90b574	-0.017664649
2	0xbdbf608a	-0.09344585
3	0x3d958233	0.07300224
4	0x3ddd6034	0.10809365
5	0x3ddf9a14	0.1091806
6	0xbd733dde	-0.059385173
7	0xbcd5562c	-0.026042067
8	0xbd97aeb5	-0.074063696
9	0x3d1034c0	0.035206556
10	0xbcfd765e	-0.030940231
11	0x3e51399b	0.20432131
12	0xbdaf39d7	-0.08555954
13	0x3e0dda19	0.13852729
14	0x3dba7dc0	0.09106016
15	0xbe2322ef	-0.15931295
16	0xbe018c40	-0.12651157
17	0x3de68c23	0.11257198
18	0x3d195070	0.037430227
19	0xbd326648	-0.043554574
20	0x3dda246e	0.1065148
21	0xbd2dfb30	-0.04247588
22	0xbbd02997	-0.006352614
23	0x3d2eb018	0.042648405
24	0xbdcf217b	-0.10113808
25	0xbe17ae16	-0.14812502
26	0xbb9921c0	-0.0046732128
27	0xbd6b9bb6	-0.057521544
28	0x3dea70a2	0.11447264
29	0xbdbd3853	-0.092392586
30	0x3e33f78f	0.17574905
31	0xbc9230ef	-0.017845599
32	0xbb3c673d	-0.0028748058
33	0xbc9f8598	-0.019472882
34	0xbddcdcca	-0.107843
35	0xbde05b08	-0.10954863
36	0x3d35bcef	0.044369634
37	0xbdc14873	-0.09437647
38	0xbdc347f2	-0.09535207
39	0x3e2760fa	0.16345587
40	0x3bae8781	0.005326212
41	0x3df4581c	0.11930868
42	0x3d7a13cc	0.061054036
43	0xbe1d9793	-0.15389852
44	0xbde54cd7	-0.11196297
45	0xbe744a08	-0.23856366
46	0xbd423b0b	-0.04741959
47	0xbe090a6b	-0.1338288
48	0x3dc3a04a	0.09552057
49	0x3d4c7667	0.049917605
50	0x3d8451e3	0.06460931
51	0xbdfda9f1	-0.123859294
52	0xbdcb17e0	-0.09916663
53	0xbdba3f34	-0.09094086
54	0xbd755ebb	-0.059904795
55	0xbbe99f04	-0.007129552
56	0xbd6806f8	-0.05664727
57	0x3abffbd9	0.00146472
58	0xbdc688b2	-0.09694041
59	0x3e32583e	0.17416474
60	0x3dab9ceb	0.08379539
61	0x3a63230f	0.0008664587
62	0xbe7e668b	-0.24843805
63	0x3c0ff324	0.008785997
64	0xbe2a8283	-0.16651349
65	0x3d0500d4	0.032471493
66	0xbd8d0f0e	-0.06887637
67	0xbe9c0db7	-0.30479214
68	0xbe2bcea1	-0.16778041
69	0xbe26fe29	-0.16307892
70	0xbdf302fd	-0.11865804
71	0xbda1346b	-0.07871326
72	0xbe01ba16	-0.12668642
73	0xbda1a9da	-0.07893725
74	0xbd2e51c0	-0.04255843
75	0x3c673499	0.014111661
76	0xbdb6fee7	-0.089353375
77	0xbd64998f	-0.055810507
78	0x3e35014c	0.17676276
79	0xbdfcf883	-0.12352087
80	0x3cad0a25	0.021123001
81	0xbd92f86b	-0.07176288
82	0xbdeb27f1	-0.114822276
83	0x3d27a1a6	0.040925644
84	0xbdf48a02	-0.119403854
85	0xbdf839b6	-0.121203825
86	0x3d370727	0.044684555
87	0x3dcc6d99	0.099818416
88	0xbc93d17d	-0.018044228
89	0x3ba08dba	0.0048997076
90	0x3e2593ff	0.16169737
91	0xbda57a78	-0.0808
92	0xbcc85370	-0.024453849
93	0x3e1c93f1	0.1529081
94	0xbd7ebabc	-0.062189803
95	0xbc161de6	-0.009162402
96	0x3daba977	0.08381932
97	0xbd3eed55	-0.046613056
98	0x3e30bd38	0.17259681
99	0xba9d8eee	-0.0012020746
100	0x3e3d5657	0.18489967
101	0xbd838128	-0.06421119
102	0xbd04101b	-0.032241922
103	0xbc923958	-0.01784961
104	0xbea1ce5a	-0.31602746
105	0xbc13f2c2	-0.009030046
106	0xbdb02d17	-0.0860235
107	0x3d7d1bd4	0.061794117
108	0xbd9c474c	-0.07630786
109	0xbd7a7c30	-0.06115359
110	0xbdf232b5	-0.11826078
111	0x3d864870	0.06556785
112	0xba15b052	-0.00057101727
113	0x3d8c6796	0.06855695
114	0xbd5e13e1	-0.054218177
115	0xbc95a6b1	-0.018267961
116	0xbd3dee68	-0.04636994
117	0xbe231a6b	-0.15928046
118	0x3e29eb15	0.16593583
119	0xbe1ac2df	-0.151134
120	0xbd04a6d4	-0.032385662
121	0x3d89e31c	0.06732771
122	0xbd43dba2	-0.04781688
123	0xbd136a2e	-0.035989933
124	0xbdbf39bf	-0.09337186
125	0xbcd75094	-0.02628354
126	0xbde9aa1b	-0.11409398
127	0x3e19a013	0.1500247
128	0xbd42958c	-0.0475059
129	0xbdd073f8	-0.10178369
130	0x3d85301d	0.065033175
131	0x3db813e3	0.08988168
132	0xbdaec932	-0.08534469
133	0x3cb40141	0.021973254
134	0xbe29ee84	-0.16594893
135	0x3c12445e	0.008927433
136	0xbcad4c44	-0.02115453
137	0x3e4656e6	0.19369087
138	0x3e0f12cf	0.13972019
139	0xbd9df80e	-0.07713328
140	0x3a8f785f	0.0010945908
141	0xbd306cc2	-0.04307247
142	0xbe15de1b	-0.14635508
143	0xbe7c1c62	-0.24620202
144	0x3c37dc6c	0.011221986
145	0x3cf64a55	0.030064741
146	0x3ba2b4b9	0.0049653915
147	0xbd9d0702	-0.07667352
148	0xbdeb3c46	-0.114861056
149	0xbbffbc0b	-0.007804399
150	0x3c9eea4c	0.01939883
151	0xbd96c923	-0.073625825
152	0xbd8c1eff	-0.068418495
153	0xbe1618de	-0.14657924
154	0xbc494367	-0.012284136
155	0xbdd678c0	-0.1047225
156	0xbb6aa296	-0.0035802475
157	0xbda90b01	-0.08254052
158	0x3d4c8499	0.049931142
159	0xbd495042	-0.049148805
160	0x3d5fa15a	0.054597236
161	0xbdb31d9d	-0.08745883
162	0xbdd6ec99	-0.10494346
163	0xbdbfa6f0	-0.09358013
164	0xbd60d875	-0.05489393
165	0xbd8315f2	-0.0640067
166	0x3dc130b8	0.094331205
167	0xbd3d753a	-0.046254374
168	0xbdb53ea4	-0.088498384
169	0x3da8ae2e	0.08236347
170	0x3ce4134d	0.027841235
171	0x3cd9170a	0.026500244
172	0xbe0a63fb	-0.13514702
173	0x3e2e1299	0.16999282
174	0xbe11efb2	-0.14251593
175	0x3c84763b	0.016169658
176	0xbd5aef06	-0.053450607
177	0xbdb7d690	-0.089764714
178	0xbe15e755	-0.14639027
179	0xbd60a368	-0.054843336
180	0x3d8f7618	0.070049465
181	0x3cadb6aa	0.021205265
182	0x3dad1921	0.084520586
183	0x3cf182ba	0.02948128
184	0x3e0f25a7	0.13979207
185	0x3d05a980	0.03263235
186	0x3d8056d5	0.06266562
187	0xbd130b41	-0.035899404
188	0x3c76fc74	0.015074838
189	0xbda8b667	-0.082379155
190	0xbc7babe7	-0.015360809
191	0x3e458958	0.19290674
192	0xbdf18bf0	-0.11794269
193	0x3d004d15	0.03132351
194	0x3d8e6af6	0.06953995
195	0x3df8e7cb	0.12153586
196	0x3cb0ce42	0.021582726
197	0xbbb2cd26	-0.0054565845
198	0x3d3a0552	0.04541523
199	0xbc9ff101	-0.0195241
200	0xbe04e550	-0.12978101
201	0xbc3e5060	-0.011615843
202	0x3894bd70	7.0924754e-05
203	0xbb7c2b1e	-0.0038477848
204	0x3b790f01	0.0038003328
205	0xbcbacf7f	-0.02280402
206	0x3cc20a63	0.023686593
207	0xbd86ebef	-0.065879695
208	0xbdeacc01	-0.11464692
209	0xbdaacdea	-0.08340056
210	0x3bada6c5	0.0052994215
211	0xbdb39ede	-0.08770536
212	0x3d264943	0.04059721
213	0xbd70ddce	-0.05880528
214	0xbd5b5f59	-0.053557727
215	0xbda2739e	-0.079322085
216	0x3de83d04	0.11339763
217	0xbdb9fd56	-0.09081523
218	0xbd3e731c	-0.046496496
219	0xbd943cf8	-0.07238191
220	0x3da1c50d	0.078989126
221	0x3df0e805	0.11763004
222	0x3cd767af	0.026294557
223	0x3c4e2b04	0.012583498
224	0xbe09d28a	-0.1345922
225	0xbd8efef0	-0.06982219
226	0xbc228e4f	-0.009921624
227	0xbd1a4241	-0.03766084
228	0xbe18452a	-0.14870134
229	0x3bb2eb89	0.005460207
230	0xbdaa2280	-0.083073616
231	0x3e0d7ccc	0.13817137
232	0xbd87df80	-0.06634426
233	0xbb8830e0	-0.004156217
234	0xbd4d4a36	-0.0501196
235	0x3cb76987	0.022389187
236	0xbbb69b2a	-0.005572696
237	0x3ae0378f	0.0017106402
238	0xbd4107c5	-0.04712655
239	0xbd803e9a	-0.0626194
240	0x3c62766d	0.01382218
241	0x3c1e7adc	0.009672847
242	0xbe052df2	-0.13005808
243	0x3c689e23	0.014197859
244	0x3c518878	0.012788884
245	0xbe0c9cde	-0.13731715
246	0x3d2fe621	0.042944077
247	0xbdb506dc	-0.08839199
248	0xbe213365	-0.15742262
249	0x3c1c6dad	0.009547633
250	0x3bcbf1d2	0.0062238956
251	0xbdf7ee7f	-0.121060364
252	0xbdc5488e	-0.09632979
253	0x3dadfb9f	0.084952585
254	0xbdea35e1	-0.11436058
255	0x3dbf3079	0.09335417

fc2.bias f4 [84]
0	0x3e449b5d	0.19199891
1	0x3d2e1b96	0.042506777
2	0xbdd287cb	-0.10279807
3	0x3e6044d7	0.2190126
4	0x3e9e923e	0.3097095
5	0x3eaba10c	0.33521307
6	0x3dcfdd3d	0.1014962
7	0xbdeb8fc6	-0.11502032
8	0x3e2d8bcd	0.16947861
9	0xbdc26b94	-0.09493175
10	0xbe1ae492	-0.15126255
11	0x3dcf979d	0.1013634
12	0xbd84ea83	-0.06490042
13	0x3ee87fe1	0.45410064
14	0x3ec6d200	0.38832092
15	0x3b9f2787	0.004857007
16	0x3cc7a091	0.024368556
17	0x3ba2a118	0.0049630515
18	0x3e409b23	0.1880918
19	0x3ea08b21	0.31356147
20	0x3ea39246	0.31947535
21	0x3e7921fa	0.24329367
22	0x3f275c68	0.65375376
23	0xbe139cca	-0.14415279
24	0x3ea62f6d	0.32458058
25	0x3d5eee29	0.054426346
26	0xbd9afa7b	-0.075673066
27	0x3e377a3c	0.17917722
28	0x3eae29d5	0.3401629
29	0x3e93898f	0.28815886
30	0x3e87a680	0.26494217
31	0x3ee00619	0.43754652
32	0x3deeef9f	0.11666798
33	0x3f4c37ef	0.7977285
34	0x3f25ad7f	0.6471786
35	0x3d4bbd0e	0.049740843
36	0xbd824e16	-0.0636255
37	0xbd8519bd	-0.0649905
38	0xbc6c885a	-0.014436806
39	0xbc6cab96	-0.014445206
40	0xbe0073c2	-0.12544158
41	0x3effc2aa	0.49953204
42	0xbdf2d8f2	-0.11857785
43	0x3e93a07a	0.2883337
44	0x3f3522cc	0.7075622
45	0x3e484778	0.19558513
46	0x3ee24cd6	0.44199246
47	0x3e92d32e	0.28676742
48	0x3e76bef7	0.24096285
49	0xbbe3bc85	-0.0069499635
50	0x3d5ea155	0.054353077
51	0x3cbeb1e7	0.02327819
52	0x3f25b3b0	0.64727306
53	0xbd847ddb	-0.064693175
54	0xbcfd433d	-0.03091585
55	0x3f21fdab	0.6327769
56	0x3f02ca9c	0.5109041
57	0x3f2f0510	0.683671
58	0x3de9a16f	0.11407744
59	0x3e7cdde1	0.24694015
60	0x3e4daeb4	0.20086175
61	0x3d6f7d1f	0.058468934
62	0x3ca3a335	0.019975284
63	0x3dac7b87	0.084219985
64	0xbd4326e1	-0.0476445
65	0x3e443648	0.19161332
66	0xbdf9dc87	-0.122002654
67	0xbddc51a8	-0.10757762
68	0xbd9a7489	-0.075417586
69	0x3f1dd17e	0.61647785
70	0x3d7b3594	0.061330393
71	0x3e3a7959	0.18210353
72	0x3e8a3c14	0.2699896
73	0x3e8df5c7	0.27726576
74	0x3e1fea3c	0.15616697
75	0xbd1279bb	-0.035760622
76	0x3e8a2aad	0.26985684
77	0x3dc01c73	0.09380426
78	0x3e807485	0.25088897
79	0x3e9a2d88	0.30112863
80	0x3ecbb9e1	0.39790252
81	0x3ef12588	0.47098947
82	0x3f147b16	0.58000314
83	0x3eabe774	0.33575022

fc3.weight f4 [10, 84]
0	0x3db4405f	0.0880134
1	0xbdcab13f	-0.09897088
2	0x3cf3f8bc	0.029781692
3	0x3e28f273	0.16498737
4	0xbe080984	-0.1328488
5	0x3aaa824f	0.0013008806
6	0x3d420d3e	0.04737591
7	0x3e59b93d	0.21262069
8	0x3dfd98cd	0.1238266
9	0xbd22747e	-0.039661877
10	0xbd794061	-0.060852412
11	0xbd1bfe65	-0.038084406
12	0x3e28cdeb	0.16484801
13	0x3d188dc3	0.03724457
14	0xbe9cbbb5	-0.3061196
15	0x3e122aee	0.14274189
16	0x3d9cb1b3	0.07651081
17	0xbde124c0	-0.10993338
18	0xbe44d0fc	-0.19220346
19	0xbe2cc685	-0.16872604
20	0xbddf9546	-0.109171435
21	0x3e63f213	0.22260313
22	0xbe18d6c1	-0.14925672
23	0x3e2a3254	0.16620761
24	0xbe843d81	-0.25828174
25	0x3deeb037	0.11654704
26	0xbd81bbb9	-0.063346334
27	0x3d5a9d0a	0.05337242
28	0xbd9af87b	-0.07566925
29	0x3e1e6e15	0.1547168
30	0xbdcbbed3	-0.09948506
31	0x3e6cb43a	0.23115626
32	0x3e8d1bd2	0.27560288
33	0xbc813fc7	-0.015777482
34	0xbdcdea79	-0.10054488
35	0x3df4b4bf	0.11948537
36	0xbd691ad0	-0.056910336
37	0xbd8c87f3	-0.06861868
38	0x3e39e22a	0.18152681
39	0xbd2746d7	-0.040839043
40	0xbd149cd4	-0.036282375
41	0x3e815bef	0.25265452
42	0x3d998453	0.07495942
43	0x3e96b0bd	0.29431716
44	0xbd569e91	-0.052397314
45	0x3e164fb0	0.14678836
46	0x3d120094	0.035645083
47	0xbe79645e	-0.24354693
48	0x3d777f22	0.060423978
49	0xbe6d66af	-0.23183702
50	0x3e5a9b20	0.21348238
51	0xbd049b75	-0.032374818
52	0xbe6886d4	-0.22707683
53	0x3d2b454b	0.04181413
54	0x3e7d18e1	0.24716522
55	0x3e0b8e14	0.13628417
56	0xbe0dfdf3	-0.13866405
57	0xbeccb393	-0.39980754
58	0x3e139968	0.14413989
59	0x3e126ad3	0.14298563
60	0x3ce3af93	0.027793681
61	0xbe08d782	-0.1336346
62	0x3e1728a5	0.14761598
63	0xbde6f25d	-0.11276696
64	0x3e050ee4	0.12993962
65	0xbe04369d	-0.12911458
66	0xbe1f3614	-0.15547973
67	0x3e5a95f5	0.21346267
68	0x3e5298e9	0.20566143
69	0x3e5e6b9f	0.21720742
70	0xbd46a66a	-0.04849855
71	0x3c502265	0.012703513
72	0xbcd0165f	-0.025401292
73	0x3d3f98a5	0.046776433
74	0x3ce7ffa6	0.028320145
75	0x3e811367	0.25210115
76	0x3d9aae9b	0.075528346
77	0xbd97817c	-0.07397744
78	0x3dd6ed19	0.104944415
79	0xbda9ca92	-0.0829059
80	0x3c453dbd	0.012038645
81	0xbd094072	-0.033508725
82	0x3dbb81ad	0.09155593
83	0xbe113d1e	-0.1418347
84	0x3e538c95	0.20659097
85	0x3e271efd	0.16320415
86	0xbdcaf7b0	-0.09910524
87	0x3db432ef	0.08798777
88	0xbd04a11c	-0.03238021
89	0xbeaf2acd	-0.34212342
90	0xbdae228d	-0.08502684
91	0xbd3c640f	-0.04599386
92	0x3e4e3a06	0.20139322
93	0x3e097eb9	0.13427247
94	0xbe070994	-0.13187248
95	0xbd8dabe1	-0.06917549
96	0xbdeed682	-0.11662008
97	0x3d57aff9	0.052658055
98	0x3ca48f14	0.020087756
99	0x3e4733c0	0.19453335
100	0x3e522920	0.205235
101	0x3e23165d	0.159265
102	0xbc12a69d	-0.0089508565
103	0x39928d8d	0.00027952754
104	0xbe2a8de8	-0.16655695
105	0x3e044956	0.129186
106	0xbe59a648	-0.21254838
107	0xbd8c28d2	-0.06843723
108	0xbe44c1c4	-0.1921454
109	0xbd1449aa	-0.036203064
110	0xbd597d70	-0.053098142
111	0x3d994a42	0.07484867
112	0xbd6abc8d	-0.057308722
113	0xbda832cf	-0.08212816
114	0xbd7bb786	-0.06145432
115	0xbdc432de	-0.09580015
116	0xbdbccd62	-0.09218861
117	0xbe0f153a	-0.13972941
118	0xbead2120	-0.33814335
119	0xbdd4f69c	-0.103985995
120	0x3e8265dd	0.2546834
121	0x3db17c43	0.08666279
122	0x3e083127	0.133
123	0x3ce0bb84	0.027433164
124	0x3e812eb3	0.2523094
125	0xbe171fcf	-0.14758228
126	0x3e243f57	0.16039787
127	0x3eaf7077	0.3426549
128	0xbe6c34fb	-0.23067085
129	0x3e0ec963	0.1394401
130	0xbdaeb155	-0.08529917
131	0x3e38089b	0.17972033
132	0xbe33152b	-0.17488544
133	0xbd310096	-0.04321345
134	0xbe64c9a2	-0.22342542
135	0x3d315323	0.043292176
136	0xbe514b88	-0.20438969
137	0x3e9015fa	0.28141767
138	0xbe3b9ff1	-0.18322732
139	0xbea05cc7	-0.31320783
140	0xbe71b359	-0.23603572
141	0xbe34cadd	-0.17655511
142	0x3da5e893	0.08101001
143	0x3e8a0f59	0.26964834
144	0x3e8dbf29	0.27684906
145	0xbd8ac9c1	-0.06776763
146	0xbdd3878b	-0.10328587
147	0x3e152b68	0.1456734
148	0xbe059bc5	-0.13047703
149	0x3dbb68a6	0.091508195
150	0xbd9dc102	-0.07702829
151	0x3dbae032	0.09124793
152	0xbc47ded3	-0.0121991215
153	0x3d40a742	0.04703451
154	0x3e5e8f9b	0.21734469
155	0x3ddb5afd	0.10710714
156	0xbe5b2674	-0.21401387
157	0x3e7b9f90	0.24572587
158	0x3d88ff21	0.06689287
159	0xbe8631b5	-0.26209798
160	0x3e074e5e	0.13213488
161	0x3dc68fcd	0.096953966
162	0xbeb38291	-0.35060552
163	0xbe930ffb	-0.2872313
164	0x3e853ea1	0.26024345
165	0xbe19f059	-0.15033092
166	0xbe073c6b	-0.13206641
167	0xbcfea9b9	-0.03108679
168	0x3d256564	0.040379897
169	0x3cdee27d	0.027207607
170	0xbdd9255d	-0.106028296
171	0x3dac3988	0.08409411
172	0xbdbf9ed7	-0.09356468
173	0x3e5b9650	0.21444058
174	0x3d472dea	0.04862777
175	0xbdf557b9	-0.119796224
176	0xbe2c2dc8	-0.16814339
177	0xbcb7adef	-0.022421805
178	0x3e831dcb	0.25608668
179	0xbd9535e7	-0.07285672
180	0x3e3abb21	0.18235447
181	0x3e8d5a35	0.27607885
182	0x3ced7997	0.028988643
183	0x3e0121c9	0.12610544
184	0xbcead023	-0.0286637
185	0xbc58e7f2	-0.013238894
186	0x3e5d430b	0.21607606
187	0x3e147a57	0.14499794
188	0xbd6a658d	-0.057225753
189	0x3ce6ecbe	0.02818906
190	0x3e8fbbae	0.28072876
191	0x3dbead81	0.09310437
192	0x3e092776	0.1339396
193	0x3e18bb35	0.14915164
194	0x3c7b2900	0.015329599
195	0xbc94fcec	-0.018187009
196	0x3dfc06a8	0.12305957
197	0xbe008eeb	-0.12554519
198	0xbdff8dfb	-0.124782525
199	0xbde8fe40	-0.11376619
200	0x3db5a0c8	0.08868557
201	0xbd6d4989	-0.057931457
202	0x3e102f06	0.14080438
203	0xbd9a2073	-0.075257204
204	0xbc787afe	-0.015166042
205	0x3e5171a1	0.20453502
206	0x3e2d86ae	0.16945907
207	0x3d983f9b	0.07434007
208	0x3dc16c86	0.09444527
209	0x3e30de40	0.17272282
210	0xbb2a94e5	-0.002602869
211	0xbe55692d	-0.20840903
212	0xbe084488	-0.13307393
213	0xbe6de707	-0.23232661
214	0xbd370b1b	-0.044688325
215	0xbdb1d75f	-0.08683657
216	0xbe34ddb6	-0.17662701
217	0xbcb9790a	-0.022640724
218	0x3ca7d552	0.020487461
219	0x3e221f43	0.15832238
220	0x3e203093	0.1564353
221	0xbd44efa5	-0.048080105
222	0x3ddeecd3	0.108850144
223	0x3dd1f04d	0.10250912
224	0xbd73ffad	-0.059570003
225	0x3e33f4e8	0.17573893
226	0xbd2c965f	-0.042135593
227	0xbe04d6ad	-0.12972517
228	0xba8350aa	-0.0010018547
229	0x3e242f31	0.16033627
230	0x3e0c53ff	0.13703917
231	0x3aea5c2d	0.0017880254
232	0x3d5c3c5e	0.053768508
233	0xbd905b58	-0.070486724
234	0x3b952ac6	0.004552218
235	0x3d9f8e30	0.07790792
236	0x3e0001bc	0.12500662
237	0x3d8eb7e1	0.06968666
238	0xbd93cbf7	-0.072166376
239	0xbe960d83	-0.29307184
240	0x3db6e6f8	0.089307725
241	0xbe48047c	-0.1953296
242	0xbd26716f	-0.040635522
243	0x3e55fd03	0.20897298
244	0x3dcc581e	0.099777445
245	0x3d55876d	0.052131105
246	0x3e81b474	0.25332987
247	0x3e53966e	0.20662853
248	0xbe0afa9c	-0.13572162
249	0x3dc59403	0.096473716
250	0x3c46f638	0.012143664
251	0x3de78894	0.11305347
252	0x3d11db03	0.035609256
253	0x3d306142	0.043061502
254	0xbe2172d6	-0.15766463
255	0xbde3acb6	-0.11116926

fc3.bias f4 [10]
0	0xbedea04f	-0.4348168
1	0xbf5ab0d5	-0.85426074
2	0xbe8d8706	-0.27642077
3	0x3f16b5fc	0.58871436
4	0x3f54064a	0.82822096
5	0x3d253c0e	0.040340476
6	0x3dfa71a0	0.122287035
7	0xbeab8f9e	-0.3350801
8	0x3ebbf03a	0.36706716
9	0xbe08d3c7	-0.13362037
